pets.pt (torch, 222335 bytes, 6 tensors)

weight f4 [16, 3, 5, 5]
0	0x3d4d56b5	0.05013152
1	0xbde0ca51	-0.10976089
2	0x3cf3b0c5	0.029747376
3	0x3d624a3b	0.055246573
4	0xbdd8e9ca	-0.10591467
5	0xbdeeeef8	-0.116666734
6	0x3d8e20ca	0.06939848
7	0xbb616e68	-0.0034398083
8	0x3d96345f	0.07334208
9	0xbd0b76ad	-0.034048725
10	0x3d3ad7bf	0.045615908
11	0xbdcbb676	-0.09946911
12	0xbd5b6d81	-0.053571228
13	0xbdf4e42a	-0.11957581
14	0xbdb28f36	-0.087187216
15	0x3dc9da13	0.098560475
16	0x3d8eeca6	0.06978731
17	0xbd95be45	-0.07311682
18	0xbcecc028	-0.028900221
19	0x3cb80ad8	0.022466108
20	0x3db20bcd	0.08693657
21	0xbdc67444	-0.09690145
22	0xbd2aad1d	-0.041669
23	0xbde580d4	-0.11206213
24	0x3d8d62d5	0.06903616
25	0xbdf1ca5a	-0.118061736
26	0xbc8dbcb4	-0.017301895
27	0xbdb97724	-0.090559274
28	0xbdeb30ae	-0.11483894
29	0x3bbc760e	0.005751378
30	0xbdb114b8	-0.0864653
31	0xbddb1d29	-0.10698921
32	0x3d4f8af6	0.050669633
33	0xbdd997cc	-0.10624656
34	0xbdc27834	-0.09495583
35	0x3c98f847	0.018673075
36	0x3cb3898e	0.021916177
37	0x3d3ccf8d	0.046096373
38	0xbc50a3ca	-0.012734363
39	0xbc26d9c8	-0.010183759
40	0x3dc9b9c0	0.09849882
41	0xbcb2da02	-0.02183247
42	0xbdde96b3	-0.10868587
43	0x3cb1b052	0.021690521
44	0x3d6df483	0.058094513
45	0xbdbd1b58	-0.09233731
46	0xbd60b140	-0.05485654
47	0x3d9b145c	0.075722426
48	0xbb2be683	-0.0026229925
49	0x3d2e0174	0.042481855
50	0xbca142cc	-0.019685172
51	0xbde3620c	-0.11102685
52	0x3c098fac	0.00839607
53	0xbd15df10	-0.036589682
54	0x3d3a7267	0.04551926
55	0x3d0ff30e	0.035143904
56	0xbc9ef3c0	-0.019403338
57	0xbdcc2525	-0.09968022
58	0xbc7b5fb4	-0.015342642
59	0x3d39589a	0.045250513
60	0x3c856d11	0.016287358
61	0x3dc5631a	0.09638043
62	0xbd9cbb7e	-0.07652949
63	0xbd4046d7	-0.04694256
64	0xbd8c401a	-0.06848164
65	0xbdf0c98f	-0.11757194
66	0x3d88a4a0	0.06672025
67	0xbdbbead6	-0.09175651
68	0xbdada36f	-0.08478438
69	0xbd60fe32	-0.05492992
70	0x3d779d33	0.06045265
71	0x3c8cc5f0	0.017184228
72	0x3bfa9349	0.0076469523
73	0xbdb0ff2f	-0.086424224
74	0x3dbd86cc	0.09254226
75	0xbcdfb287	-0.027306808
76	0x3dc93333	0.098242186
77	0x3dbf17e0	0.09330726
78	0x3d21af1a	0.03947363
79	0x3c6a70fa	0.014309162
80	0x3dd456d4	0.10368124
81	0xbd31bf2c	-0.043395206
82	0xbd8c823d	-0.068607785
83	0xbd9af526	-0.075662896
84	0x3da8fd37	0.08251422
85	0xbd97d768	-0.07414132
86	0xbdaade5f	-0.08343195
87	0x3c59ae94	0.013286252
88	0x3d9b1531	0.07572401
89	0x3b20f60c	0.0024560718
90	0x3ddd4d2e	0.108057365
91	0xbd6d01a8	-0.057862908
92	0x3daa4521	0.083139665
93	0xbd6c12f7	-0.057635274
94	0xbcc8a8b1	-0.0244945
95	0xba395740	-0.0007070191
96	0xbd4f4db5	-0.050611217
97	0x3acfd914	0.0015857541
98	0x3c5dafb8	0.013530664
99	0x3cca757f	0.02471423
100	0xbbb836c1	-0.0056217615
101	0xbc43ff56	-0.011962732
102	0x3d04c288	0.032412082
103	0x3d66ec52	0.056377716
104	0x3d9d405c	0.07678291
105	0x3d920d2b	0.07131418
106	0x3dc1c91b	0.09462186
107	0x3dd9e3d5	0.10639159
108	0x3d2ff2b1	0.042956058
109	0xbdde5cce	-0.10857545
110	0xbd2bdf15	-0.041960794
111	0x3dd99491	0.1062404
112	0x3d5c9c68	0.053860098
113	0xbdbf6fef	-0.093475215
114	0x3dda8e8c	0.1067172
115	0xbdf2442f	-0.11829411
116	0x3ce4de52	0.027938042
117	0xbda3923e	-0.07986878
118	0xbd91f1c0	-0.07126188
119	0x3d88d35b	0.06680938
120	0xbdd9d5d0	-0.106364846
121	0x3dc207c2	0.09474136
122	0x3dc5d2a8	0.0965932
123	0xbd25ec5f	-0.040508624
124	0xbdd2ee93	-0.10299411
125	0x3cbc2209	0.022965448
126	0x3d8f04be	0.069833264
127	0x3bd8b346	0.006613168
128	0xbdc62d94	-0.09676662
129	0xbdce415d	-0.10071061
130	0xbdf216b9	-0.1182074
131	0x3d3e38a2	0.046440728
132	0x3c1bcaa5	0.009508763
133	0x3d17ea88	0.0370889
134	0x3b3d3a7a	0.0028873966
135	0x3d825a46	0.063648745
136	0x3d4c51be	0.049882643
137	0xbdd0ca3a	-0.10194822
138	0x3d9fb73b	0.0779862
139	0x3dd827a2	0.10554434
140	0x3c3fd219	0.011707806
141	0xbd4cd7ad	-0.050010372
142	0x3c931a65	0.017956922
143	0x3d016ecb	0.0315998
144	0xbd0a82a9	-0.033816013
145	0xbd79935d	-0.060931552
146	0x3cb0f8aa	0.021602947
147	0x3c7a6e3e	0.015285073
148	0xbd8287a0	-0.06373525
149	0xbc787bda	-0.015166247
150	0xbc13817c	-0.009003039
151	0x3dd65ef7	0.10467332
152	0xbdb0fb67	-0.08641701
153	0xbdcadf97	-0.09905928
154	0x3aa25c70	0.0012387168
155	0x3dc2be75	0.09508983
156	0x3cd252da	0.025674272
157	0x3d450b8c	0.048106715
158	0xbc8b1aa5	-0.016980479
159	0x3dde7cbe	0.108636364
160	0xbdcbfcf4	-0.09960356
161	0x3d34b84c	0.04412107
162	0xbd10219c	-0.035188302
163	0xbd84b51b	-0.064798556
164	0x3c1404d8	0.009034358
165	0xbd53961d	-0.05165683
166	0x3d4049ec	0.046945497
167	0x3ca57dec	0.020201646
168	0xbd098c5e	-0.03358113
169	0x3dd97f5e	0.106199965
170	0x3bd4fc70	0.0064998195
171	0xbcddefa7	-0.027091814
172	0x3d683ba7	0.056697514
173	0x3d0fcbb0	0.03510636
174	0x3cf20762	0.029544536
175	0x3acdac20	0.0015691556
176	0xbd5eeffb	-0.054428082
177	0xbddd5cab	-0.10808691
178	0x3dd5435e	0.1041324
179	0xbc99bcce	-0.018766787
180	0x3a1595ee	0.000570624
181	0x3dde553f	0.10856103
182	0xbd6103ef	-0.054935392
183	0xbd1203ad	-0.035648037
184	0xbdacaa96	-0.08430974
185	0x3d163f06	0.036681198
186	0xbc302e4e	-0.010753227
187	0xbdcc6cb0	-0.09981668
188	0xbdbde15c	-0.092714995
189	0xbdb04e12	-0.08608641
190	0xbd43baee	-0.047785692
191	0x3dae33b6	0.08505957
192	0x3d4888ef	0.048958715
193	0xbd10bb45	-0.035334844
194	0xbd56df67	-0.052459147
195	0x3de1ff73	0.11035051
196	0xbdc1de4f	-0.0946623
197	0xbdc85b12	-0.09782995
198	0x3ddc96c6	0.10770945
199	0x3d7dab6b	0.061931055
200	0x3d66d4e6	0.05635538
201	0xbd5d0acc	-0.053965375
202	0x3d775cd4	0.060391262
203	0xbd931577	-0.071818285
204	0xbdba7e7f	-0.091061585
205	0x3d8afcff	0.067865364
206	0xbcc097db	-0.02350991
207	0xbb1b45fc	-0.0023692837
208	0xbc293986	-0.010328656
209	0x3d37f806	0.044914268
210	0xbd833fb2	-0.06408633
211	0x3dcb982e	0.09941135
212	0xbd5ee104	-0.05441381
213	0xbd73e904	-0.059548393
214	0x3d83ab7c	0.064291924
215	0xbd65a0cc	-0.05606155
216	0x3d880c7d	0.06643007
217	0xbd0ba0c1	-0.034088854
218	0xbd8a49f8	-0.0675239
219	0x3de05b5e	0.10954927
220	0xbd8543fa	-0.06507106
221	0xbd94620c	-0.072452635
222	0xbcccb94b	-0.024990698
223	0x3d8e4f5a	0.06948729
224	0xbc50c8ea	-0.012743214
225	0xbd81be7d	-0.06335161
226	0xbd7a0647	-0.061041143
227	0xbc9f0f26	-0.019416403
228	0xbd97277a	-0.073805764
229	0x3cedb2fd	0.029016012
230	0xbdcd66cf	-0.10029375
231	0x3a4cfcba	0.00078196416
232	0xbcd18d76	-0.02558015
233	0xbccbfd22	-0.024900977
234	0xbdbd3d10	-0.092401624
235	0x3dd26a0f	0.10274135
236	0xbdb1a6d6	-0.086743996
237	0x3dbbbd38	0.0916695
238	0xbcb2e470	-0.021837443
239	0xbd16ff6f	-0.036864694
240	0xbdd78464	-0.105232984
241	0xbdd22b18	-0.10262126
242	0x3d43e4f8	0.047825783
243	0xbca52038	-0.020156965
244	0x3dac5cdb	0.08416148
245	0xbdcba61f	-0.099437945
246	0xbd543fa6	-0.051818512
247	0xbd5f045a	-0.05444751
248	0x3cb95f41	0.022628428
249	0xbd90e774	-0.07075396
250	0xbddb83e4	-0.107185155
251	0xbce9918c	-0.028511785
252	0x3d848603	0.06470873
253	0xbdb425bf	-0.08796262
254	0xbcbdb5bf	-0.023157952
255	0x3c9c7ec9	0.019103425

bias f4 [16]
0	0xbdf5f87a	-0.12010284
1	0x3da817f0	0.08207691
2	0xbdd4004d	-0.1035162
3	0x3b937035	0.00449946
4	0x3acb662b	0.0015518119
5	0x3d8e65d1	0.06953014
6	0x3d538977	0.05164477
7	0x3d6bf846	0.05760982
8	0x3d42e1d3	0.047578644
9	0x3d31acd5	0.043377716
10	0xbc1a0274	-0.009399999
11	0xbc1dd772	-0.009633886
12	0xbd2d3d40	-0.04229474
13	0xbdd6c327	-0.10486441
14	0xbca816b0	-0.02051863
15	0x3e02e9f0	0.12784553

weight f4 [8, 16, 5, 5]
0	0xbd0bf893	-0.034172606
1	0x3ba4c5e4	0.005028473
2	0xbd23ffe7	-0.04003897
3	0xbd6899e0	-0.05678737
4	0xbb67c1d9	-0.0035363345
5	0x3c440367	0.011963702
6	0x3cdf2922	0.027241293
7	0xbd081f8f	-0.03323322
8	0x3b6b0d70	0.0035866164
9	0x3c9deedc	0.019278936
10	0x3d2894bd	0.041157473
11	0x3b102e2a	0.0022000172
12	0x3ca8c6d3	0.02060262
13	0x3c2f2e0f	0.010692134
14	0xbd25c8f6	-0.040474854
15	0x3c705a56	0.014669975
16	0xbcea90ae	-0.028633442
17	0x3ccd1363	0.025033658
18	0x3c83171c	0.01600223
19	0x3b8f1426	0.0043664156
20	0xbc070951	-0.008241967
21	0xbbfcd327	-0.007715601
22	0x3d26ae94	0.040693834
23	0x3d2b56b6	0.04183074
24	0x3d158259	0.036501262
25	0xbac31eae	-0.0014886463
26	0xbc431529	-0.0119069
27	0xbd1f08c7	-0.03882673
28	0x3cfffab2	0.03124747
29	0x3c7417f5	0.01489829
30	0x3cafe668	0.021472171
31	0xbcb140a1	-0.021637263
32	0xbc459661	-0.012059779
33	0xbc5caa20	-0.013468295
34	0x3ce8809b	0.028381636
35	0xbd5484a4	-0.05188431
36	0xbc1ba8ea	-0.0095007215
37	0xbd2bdf1a	-0.041960813
38	0xb9dceb1b	-0.00042136837
39	0x3cbc0076	0.022949439
40	0xbcf88138	-0.030335054
41	0x3b2ca740	0.0026344806
42	0x3c81c32f	0.015840141
43	0xbd5c0cce	-0.05372315
44	0xbd1424fd	-0.036168087
45	0x3d3ac6fe	0.04559993
46	0xbc84ec6a	-0.016226012
47	0x3c9b90f7	0.018990023
48	0x3cd842e8	0.02639909
49	0xbc769209	-0.015049466
50	0x3d189287	0.037249114
51	0xbcff0739	-0.031131374
52	0x3cf79533	0.03022251
53	0x3d1ddf44	0.038543
54	0x3a28562b	0.00064215314
55	0xbc895651	-0.016764792
56	0xbc24d3d9	-0.010060274
57	0x3c433384	0.011914138
58	0x3c53b1f8	0.012920849
59	0xbd40f445	-0.047107954
60	0xbd1ee15c	-0.03878914
61	0xbaab6aaa	-0.0013078053
62	0xbc9c19ab	-0.019055208
63	0x3d33291e	0.043740384
64	0x3cacb82b	0.021083912
65	0xbd4f1135	-0.05055352
66	0xbcfc5aff	-0.03080511
67	0xbd10ed72	-0.035382695
68	0xbaf0cade	-0.0018371006
69	0xbc275922	-0.010214122
70	0x3cf8fe12	0.030394588
71	0xbc73a4c5	-0.014870827
72	0xbc86a41c	-0.016435675
73	0xbd30d350	-0.043170273
74	0xbd0652f5	-0.032793958
75	0x3d38851a	0.04504881
76	0xbbf561ea	-0.007488479
77	0x3d06882b	0.032844704
78	0x3c3ec220	0.011642963
79	0x3d2c9400	0.04213333
80	0xbbd8abd0	-0.0066122785
81	0x3bdc6799	0.006726217
82	0xbd4ddc00	-0.050258636
83	0xbc6a1187	-0.014286405
84	0x3c9086f8	0.017642483
85	0x37d23bec	2.5061854e-05
86	0x3cb458a0	0.022014916
87	0x3a02c857	0.00049889594
88	0xbb60a721	-0.0034279304
89	0x3cedd8af	0.029033987
90	0x3d840cda	0.06447764
91	0x3d22b9cd	0.039727975
92	0xbd3008ec	-0.04297726
93	0xbb96ab10	-0.004598029
94	0xbbf307d4	-0.0074167047
95	0x3d833617	0.06406801
96	0x3c9bb7c7	0.01900853
97	0xbc78037e	-0.015137551
98	0x3c71561f	0.0147300055
99	0x3cd65e0c	0.026167892
100	0x3d0ecc82	0.034863003
101	0xbb417ba1	-0.0029523151
102	0x3d1a2ef9	0.037642453
103	0xbd26aef5	-0.040694196
104	0x3c4663a5	0.012108718
105	0xbd366579	-0.044530366
106	0xbabf7a21	-0.0014608541
107	0xbd05e9e6	-0.032693766
108	0x3ce35c3f	0.027753947
109	0x3d07aaeb	0.033121984
110	0xbd3a75a4	-0.045522347
111	0x3ccb1b19	0.024793195
112	0xbd3005e9	-0.042974386
113	0xbd0231f7	-0.03178593
114	0x3c617e71	0.013763056
115	0xbcf72ebf	-0.030173657
116	0xbd2a3098	-0.04155025
117	0x3d0ea4cd	0.034825135
118	0x3cef7988	0.029232755
119	0x3caa6b73	0.020803189
120	0xbd1c9840	-0.038231134
121	0x3d43c11c	0.047791585
122	0x3d1d9e2e	0.03848093
123	0x3c8e3783	0.017360454
124	0xbbd1959d	-0.006396009
125	0xbd5b5870	-0.053551137
126	0x3c5a3597	0.013318441
127	0xbbcffae7	-0.0063470486
128	0xbcdcb7f3	-0.026943183
129	0xbd1f3f69	-0.038878832
130	0xbd371fa9	-0.044707928
131	0x3cc0c03b	0.023529163
132	0x3d2a5c5a	0.04159198
133	0xbd53f4eb	-0.051747244
134	0x3b28fff0	0.0025787316
135	0x3c9a28fd	0.018818373
136	0xbd035d57	-0.032071438
137	0x3c081640	0.008306086
138	0xbced5deb	-0.028975448
139	0xbce8e160	-0.02842778
140	0x3c52f05d	0.01287469
141	0x3cec25c1	0.028826596
142	0xbd188c6b	-0.037243288
143	0x3c12c0bb	0.008957083
144	0x3d1aaddd	0.037763465
145	0x3d1e182b	0.038597267
146	0x3d1a2421	0.03763211
147	0xbd37bd63	-0.044858348
148	0xbd2636bd	-0.040579546
149	0x3d1b751d	0.037953485
150	0x3d2c00b8	0.041992873
151	0x3d234eea	0.03987018
152	0xbbac498d	-0.0052577914
153	0x3d1cfe94	0.038328722
154	0x3ce7af1a	0.028281737
155	0xbd24f7b0	-0.040275276
156	0xbd55dbc6	-0.052211545
157	0x3d02b176	0.03190752
158	0x3ccce60f	0.025012044
159	0xbd48c494	-0.049015597
160	0x3d0b962f	0.034078773
161	0xbc2c53a9	-0.010517993
162	0x3cf9be50	0.030486256
163	0x3d16f168	0.036851317
164	0xbc616daa	-0.013759056
165	0x3c9f9792	0.019481454
166	0xbd4ebcd3	-0.050473046
167	0xbd5c53df	-0.053790923
168	0x3d05ebfc	0.032695755
169	0x3c54ce57	0.012988648
170	0x3b992952	0.004674115
171	0x3c80e181	0.015732529
172	0x3d169403	0.03676225
173	0xbd166ed7	-0.0367268
174	0xbd501b90	-0.050807536
175	0xbb3fb24e	-0.0029250565
176	0x3d2a515c	0.041581497
177	0x3d1e0d82	0.0385871
178	0x3d0e82c9	0.034792695
179	0xbc809957	-0.015698118
180	0xbd1c9000	-0.038223267
181	0xbd400b57	-0.046885815
182	0xbd4595b6	-0.04823848
183	0xb97f1d1f	-0.00024329544
184	0x3cb4ebe6	0.022085141
185	0xbd344ff1	-0.04402155
186	0x3ccf88f3	0.025333857
187	0x3d2dfe8a	0.042479075
188	0x3ce08c1a	0.027410556
189	0xbca3edac	-0.020010792
190	0xbd1186c4	-0.035528913
191	0xbd0c4c62	-0.03425253
192	0x3c873afc	0.016507618
193	0x3c5bfda0	0.013427168
194	0x3ca15113	0.01969198
195	0xbd38944d	-0.045063306
196	0xbcd5b421	-0.026086869
197	0xbd57ffb7	-0.052734103
198	0x3cf427c1	0.029804112
199	0xbd10901c	-0.035293683
200	0xbc82121a	-0.015877772
201	0xbd45e6de	-0.048315875
202	0xbcb0999b	-0.02155762
203	0xbc72847a	-0.014802093
204	0xbd427818	-0.04747781
205	0x393e440d	0.00018145163
206	0x3d159417	0.036518183
207	0xbcebb006	-0.028770458
208	0xbc0c20e8	-0.008552767
209	0x3c8dfdb3	0.017332887
210	0x3c35e656	0.01110228
211	0x3d0ebe42	0.034849413
212	0xbd0aa032	-0.03384418
213	0x3d1c8af2	0.038218446
214	0x3c7ccc13	0.015429514
215	0x3c7a53b9	0.01527875
216	0xbd06e698	-0.032934755
217	0x3bf9db34	0.007625008
218	0xbd0efe92	-0.034910746
219	0x3d1a77e8	0.037712008
220	0xbd35f036	-0.044418536
221	0xbd56c6a5	-0.052435536
222	0xbd3cbcd5	-0.04607852
223	0x3c0626d6	0.00818797
224	0x3a9380e7	0.0011253626
225	0xbd1c7068	-0.038193136
226	0xbd08a85e	-0.033363692
227	0x3d13f870	0.0361256
228	0xbc6f7cd7	-0.0146171665
229	0xbcc3a3a1	-0.023881735
230	0x3d15f1dc	0.03660761
231	0xbc189b2c	-0.00931434
232	0xbcc54b76	-0.024083834
233	0xbd63ea20	-0.0556432
234	0x3d25dc21	0.040493134
235	0x3cdbbb80	0.026822805
236	0xbc4d2a30	-0.012522265
237	0x3cf6dcbc	0.030134551
238	0x3d27a61b	0.040929895
239	0x3d337425	0.043811936
240	0xbcb7fe3b	-0.022460094
241	0xbc352bf1	-0.01105784
242	0x3c245e15	0.0100321965
243	0xbce7b081	-0.028282406
244	0xbd07221b	-0.03299151
245	0xba54a0a4	-0.00081110955
246	0xbd342b38	-0.04398653
247	0x3c6dbb9c	0.014510062
248	0x3d05ae0b	0.032636683
249	0xbb795897	-0.0038047188
250	0xbc5f3929	-0.013624468
251	0x3c6c5eed	0.014426929
252	0xbce8b818	-0.028408095
253	0x3c0b2ea6	0.008495009
254	0x3d031aa7	0.03200784
255	0xbbf61f06	-0.0075110225

bias f4 [8]
0	0xbbd1cddb	-0.0064027137
1	0xbd538b11	-0.051646296
2	0xbcce8bd9	-0.025213169
3	0xbba54b54	-0.00504438
4	0xbd3e9cfa	-0.046536423
5	0x3c53b038	0.012920432
6	0xbd3d9138	-0.04628107
7	0xbcbede61	-0.023299398

weight f4 [2, 25088]
0	0x3943a848	0.00018659339
1	0xbbb36a8d	-0.0054753483
2	0x3b96af02	0.0045984993
3	0x3b47b9cc	0.0030475734
4	0x3bda4535	0.006661082
5	0x3b0dd402	0.002164126
6	0x3c0acce7	0.008471704
7	0xba700e90	-0.00091574434
8	0x3ba3d74a	0.0050000297
9	0x3bd64faf	0.0065402607
10	0xb97e2def	-0.00024240439
11	0x3bb33141	0.005468518
12	0x3be06f2a	0.0068491893
13	0xbb2676f4	-0.0025400491
14	0x3a516fe1	0.00079893885
15	0x3b636feb	0.003470416
16	0xbac9daea	-0.0015400324
17	0xb6912231	-4.325317e-06
18	0xbb979dbc	-0.0046269577
19	0x3bcf9120	0.006334439
20	0x3bd897fe	0.0066099158
21	0xba50893b	-0.0007955019
22	0x3b1986f9	0.0023426397
23	0x3bb008eb	0.005372157
24	0xbba03f55	-0.0048903623
25	0x3b29a060	0.0025882944
26	0x3b462150	0.0030232258
27	0x39ab4f71	0.0003267485
28	0xbabf7110	-0.0014605839
29	0x3bd9269c	0.006626917
30	0x3be83181	0.0070859795
31	0xbbb9cb59	-0.005669993
32	0x3ba1dc4d	0.004939592
33	0xbb8735f1	-0.0041263034
34	0x3b8ab3b1	0.0042328467
35	0x3bc53fbf	0.006019562
36	0xbb6a0f2e	-0.0035714614
37	0x3ab33f1d	0.0013675425
38	0x3b55ca15	0.003262167
39	0x3a3dd8d6	0.0007242089
40	0x3bb2feb3	0.0054624914
41	0xbab064b3	-0.0013457745
42	0x3bd0530d	0.0063575567
43	0x3a5663ad	0.0008178305
44	0x3a2ed4f0	0.00066693034
45	0x3aa4e292	0.001257973
46	0x3b7504d9	0.0037386923
47	0x3bc3263f	0.005955487
48	0x3b4ec2cb	0.003154921
49	0xbb31eda7	-0.0027149708
50	0xbb09f3f2	-0.0021049944
51	0xbb18bea2	-0.0023306985
52	0xbba937c3	-0.005164118
53	0xbaa03b2c	-0.0012224666
54	0xbbda4422	-0.006660954
55	0x3a31880a	0.00067722856
56	0x3b89a43f	0.004200488
57	0x3bc6b147	0.0060636136
58	0x3c09a1ee	0.008400423
59	0x3c057ba0	0.00814715
60	0xbae2411b	-0.0017261835
61	0x3bd143e9	0.0063862693
62	0x3beb85d2	0.0071875835
63	0xbb83ab19	-0.004018199
64	0x3b45c843	0.003017918
65	0x395a171f	0.00020798713
66	0x39fda466	0.00048378407
67	0x3b5ae9cc	0.0033403514
68	0xbb33c7d5	-0.0027432342
69	0xba746f3d	-0.0009324437
70	0xba72b27f	-0.00092581654
71	0x3ae75cdb	0.0017651574
72	0x3bdb2558	0.0066878013
73	0x3bb8c3d5	0.0056385794
74	0x3b838d8b	0.004014676
75	0x3ab06e73	0.0013460651
76	0xbb16d864	-0.0023017162
77	0xbb541d4b	-0.0032366093
78	0x3c05cd6f	0.008166655
79	0x3c0ecd8f	0.008716001
80	0xbb2ff40e	-0.0026848349
81	0x3b1dd403	0.0024082668
82	0x3bb1f0dc	0.005430324
83	0xbb6919d4	-0.0035568373
84	0x3be8b0c5	0.0071011507
85	0x3ba2116f	0.004945926
86	0x3b799496	0.003808295
87	0x3bf3b12e	0.007436893
88	0xbb299745	-0.0025877517
89	0x3be00b53	0.0068372875
90	0x3b3f1050	0.002915401
91	0x3b85dc18	0.004085075
92	0xbb6c615f	-0.003606878
93	0x3bd71e26	0.0065648733
94	0xbb4e3043	-0.0031461872
95	0xbb8426bc	-0.004032938
96	0xb997ae6a	-0.00028930913
97	0x3aa105f4	0.0012285099
98	0x3b927125	0.0044690543
99	0xba94c297	-0.0011349496
100	0xbb169260	-0.002297543
101	0x3c0412fb	0.008061166
102	0x3abe829b	0.0014534773
103	0xbac8adf3	-0.001531063
104	0x3b95472e	0.0045556044
105	0x3b504c92	0.003178392
106	0x3bf0b41e	0.0073456904
107	0x3b5f2fe6	0.003405565
108	0xba6361b1	-0.000867392
109	0x3b93e3ca	0.0045132386
110	0xbb9505a4	-0.0045477916
111	0xb813e639	-3.5261943e-05
112	0xbb873c2a	-0.004127045
113	0xbb1760e7	-0.002309853
114	0x3ba2d033	0.004968667
115	0x39d3ad41	0.0004037414
116	0x3bdb268e	0.0066879457
117	0x3b22a2e6	0.0024816333
118	0x3bfaf068	0.007658053
119	0x3a1e8b63	0.0006047992
120	0x3afaba57	0.001912902
121	0xba8055b8	-0.0009791171
122	0x39acd6ce	0.00032966438
123	0xbb3eb502	-0.0029099588
124	0xbb143f83	-0.0022620864
125	0xbab675b0	-0.0013920572
126	0xbb51d027	-0.0032014938
127	0xbab2ab77	-0.0013631423
128	0x3b07b8d0	0.0020709522
129	0xbb79fa80	-0.0038143694
130	0xbb151dad	-0.0022753284
131	0x3bc9139f	0.006136372
132	0x3bb76d66	0.005597758
133	0x3b47d8f5	0.0030494307
134	0x3ae9f33a	0.0017848976
135	0x3bf653fb	0.0075173355
136	0x3b2da9f8	0.0026499014
137	0xba1169f9	-0.0005547102
138	0x3bc41774	0.005984241
139	0x3be78d8a	0.0070664333
140	0x3b857f40	0.0040740073
141	0xbb79c89b	-0.0038113955
142	0x3ba61ad0	0.0050691143
143	0x3b840fc3	0.0040301993
144	0x3ba58694	0.0050514434
145	0xbb78cf48	-0.0037965346
146	0x39126f8a	0.00013965197
147	0x3bce8ba6	0.0063032685
148	0x3bdc6866	0.0067263125
149	0x3b85a8ff	0.004078984
150	0xbb33ed3c	-0.0027454635
151	0xbb8a3307	-0.0042175087
152	0xba53abfe	-0.000807464
153	0x3ba5584f	0.0050459276
154	0xbb556543	-0.0032561577
155	0x3bbc9fe7	0.0057563665
156	0x3b199bb7	0.002343876
157	0x3a6a3401	0.0008934141
158	0xbaa2e606	-0.0012428171
159	0x3b24e831	0.002516281
160	0x3bcaa1d9	0.0061838445
161	0x3b17106e	0.0023050564
162	0x3b54488a	0.003239187
163	0xbb13715e	-0.0022497992
164	0x3bd98378	0.0066379867
165	0x3b8a2815	0.004216204
166	0xbb4e7a59	-0.003150603
167	0xb79ec0cf	-1.8924851e-05
168	0x3be82529	0.007084508
169	0x3c14bf13	0.009078759
170	0x3c19dad5	0.0093905525
171	0xbb29ff8a	-0.0025939667
172	0xba86d178	-0.0010285815
173	0x3b554eee	0.0032548266
174	0xbaa7cdd8	-0.0012802435
175	0x3a9a60f9	0.0011778168
176	0x3bab1a2a	0.005221625
177	0xbb3cd834	-0.002881539
178	0x3bd4a78d	0.0064897
179	0x3983a2c6	0.00025107543
180	0xbb40db31	-0.0029427523
181	0x3bbe86b2	0.005814397
182	0x39fac997	0.00047833912
183	0x3b893ea8	0.0041883774
184	0x3bd0a34c	0.0063671228
185	0xbb57b93c	-0.0032916805
186	0x3a979955	0.0011566082
187	0x3bf9b837	0.007620837
188	0x3b444bb7	0.0029952356
189	0xbb677f73	-0.0035323768
190	0x3bb258a1	0.0054426943
191	0x3c0e126e	0.008671386
192	0xbaa4c451	-0.0012570714
193	0xbb530460	-0.0032198653
194	0x3bbfc591	0.005852409
195	0x3bf25967	0.0073959115
196	0x3bb8e4d7	0.005642514
197	0x3b508c55	0.0031821926
198	0xbb8a2d8b	-0.004216855
199	0xbb261e8f	-0.0025347804
200	0x3be55c63	0.0069995387
201	0x3be5185b	0.006991429
202	0xbb2e9bb4	-0.00266431
203	0xbb24a3f7	-0.0025122145
204	0xbaf44f81	-0.0018639417
205	0xbb6b5fec	-0.0035915328
206	0xbb93794a	-0.004500543
207	0x3ba518ec	0.0050383713
208	0x3b80a2b9	0.003925648
209	0x3bdd5953	0.006755033
210	0xbb4a2b5b	-0.0030848596
211	0x3ade6937	0.0016968612
212	0x3ba42577	0.005009349
213	0x3b096c55	0.0020969112
214	0xbbba5ecc	-0.00568757
215	0x3b8cd116	0.004297386
216	0x3b8c59c8	0.0042831637
217	0x39d44e4b	0.00040494124
218	0x3af46196	0.0018644806
219	0x3ba549bd	0.0050441907
220	0xbbbc92d3	-0.0057548075
221	0x3b212c4e	0.0024593058
222	0x3bce21cc	0.00629065
223	0x3ba3ab2e	0.0049947714
224	0xbb29dbfd	-0.0025918477
225	0x3ab43600	0.0013749003
226	0x3abbe802	0.0014336111
227	0xbaca9ec7	-0.0015458696
228	0x3a315754	0.0006765027
229	0x3c063815	0.008192082
230	0x3c016b60	0.007899135
231	0x3b3c74e6	0.00287562
232	0x3ae70bbc	0.0017627398
233	0xbb6bcfc1	-0.0035981985
234	0xbb67379a	-0.0035280944
235	0x3a8b17e9	0.0010611984
236	0x3bf050c3	0.0073338463
237	0x3b660d08	0.0035102982
238	0x3aa78aaf	0.001278242
239	0x3a1fa4c1	0.0006089919
240	0x3b77b194	0.0037795054
241	0xba720ac7	-0.00092331733
242	0xbafe1293	-0.0019384198
243	0x39cfdce9	0.00039646708
244	0xbb97464b	-0.004616534
245	0xbb06af32	-0.0020551202
246	0x3a7ec660	0.0009718891
247	0x3b92e3b5	0.004482711
248	0x3bbfc63b	0.0058524883
249	0x3ba78273	0.0051119863
250	0x3b0ae9ad	0.002119641
251	0x3a1aa3c8	0.0005899039
252	0x3baecb5a	0.0053343
253	0xbb9e1819	-0.00482465
254	0xbae25b61	-0.0017269665
255	0xb9b44c67	-0.000343892

bias f4 [2]
0	0x3c0065d1	0.007836775
1	0xbae6d326	-0.0017610535
